…
plemented\".format(node.kind)\r\n@@ -955,7 +956,8 @@ def lstm(context, node):\r\n         )\r\n\r\n\r\nReproducible:\r\n\r\nYes\r\n\r\nTestcase:\r\n\r\nAttached\r\n[testTransformerEncoder.txt](https://github.com/apple/coremltools/files/4892950/testTransformerEncoder.txt)\r\n\r\nSetup:\r\n\r\nmacOS Catalina latest\r\nPython 3.7.6\r\n\r\nLog:\r\n\r\nTorch version : 1.5.1\r\nCoreML tools version : 4.0b1\r\nTestModel(\r\n  (transformer_encoder): TransformerEncoder(\r\n    (layers): ModuleList(\r\n      (0): TransformerEncoderLayer(\r\n        (self_attn): MultiheadAttention(\r\n          (out_proj): Linear(in_features=28, out_features=28, bias=True)\r\n        )\r\n        (linear1): Linear(in_features=28, out_features=16, bias=True)\r\n        (dropout): Dropout(p=0.1, inplace=False)\r\n        (linear2): Linear(in_features=16, out_features=28, bias=True)\r\n        (norm1): LayerNorm((28,), eps=1e-05, elementwise_affine=True)\r\n        (norm2): LayerNorm((28,), eps=1e-05, elementwise_affine=True)\r\n        (dropout1): Dropout(p=0.1, inplace=False)\r\n        (dropout2): Dropout(p=0.1, inplace=False)\r\n      )\r\n      (1): TransformerEncoderLayer(\r\n        (self_attn): MultiheadAttention(\r\n          (out_proj): Linear(in_features=28, out_features=28, bias=True)\r\n        )\r\n        (linear1): Linear(in_features=28, out_features=16, bias=True)\r\n        (dropout): Dropout(p=0.1, inplace=False)\r\n        (linear2): Linear(in_features=16, out_features=28, bias=True)\r\n        (norm1): LayerNorm((28,), eps=1e-05, elementwise_affine=True)\r\n        (norm2): LayerNorm((28,), eps=1e-05, elementwise_affine=True)\r\n        (dropout1): Dropout(p=0.1, inplace=False)\r\n        (dropout2): Dropout(p=0.1, inplace=False)\r\n      )\r\n    )\r\n  )\r\n)\r\nLibrary/Python/3.7/lib/python/site-packages/torch/jit/__init__.py:1037: TracerWarning: Output nr 1. of the traced function does not match the corresponding output of the Python function. Detailed error:\r\nNot within
…
