…
\r\n                               validation_steps = VALIDATION_STEPS,\r\n                               verbose=1,\r\n                               callbacks=callbacks)\r\n`\r\nI would like to do transfer learning based with images of 200x200 pixels. I am very new to this, how can I modify? \r\n\r\nis there a way to modify the model input shape? and do I. need to do something with spatial size? \r\n\r\nAnd which optimizer is recommended? Adam or SGD?\r\n`\r\n__________________________________________________________________________________________________\r\nres5c_branch2a (Conv2D)         (None, 2, 2, 512)    1049088     activation_46[0][0]              \r\n__________________________________________________________________________________________________\r\nbn5c_branch2a (BatchNormalizati (None, 2, 2, 512)    2048        res5c_branch2a[0][0]             \r\n__________________________________________________________________________________________________\r\nactivation_47 (Activation)      (None, 2, 2, 512)    0           bn5c_branch2a[0][0]              \r\n__________________________________________________________________________________________________\r\nres5c_branch2b (Conv2D)         (None, 2, 2, 512)    2359808     activation_47[0][0]              \r\n__________________________________________________________________________________________________\r\nbn5c_branch2b (BatchNormalizati (None, 2, 2, 512)    2048        res5c_branch2b[0][0]             \r\n__________________________________________________________________________________________________\r\nactivation_48 (Activation)      (None, 2, 2, 512)    0           bn5c_branch2b[0][0]              \r\n__________________________________________________________________________________________________\r\nres5c_branch2c (Conv2D)         (None, 2, 2, 2048)   1050624     activation_48[0][0]              \r\n__________________________________________________________________________________________________\r\nbn5c_branch2c (BatchNormalizati (None, 2, 2, 2048)   8192        res5c_branch2c[0][0]             \r\n__________________________________________________________________________________________________\r\nadd_16 (Add)                    (None, 2, 2, 2048)   0           bn5c_branch2c[0][0]              \r\n                                                                 activation_46[0][0]              \r\n__________________________________________________________________________________________________\r\nactivation_49 (Activation)      (None, 2, 2, 2048)   0           add_16[0][0]                     \r\n__________________________________________________________________________________________________\r\npred_age (Dense)                (None, 2, 2, 101)    206848      activation_49[0][0]              \r\n==================================================================================================\r\nTotal params: 23,794,560\r\nTrainable params: 23,741,440\r\nNon-trainable params: 53,120\r\n__________________________________________________________________________________________________\r\n`\r\n\r\nGetting the following error\r\n`\r\nValueError: Erro
…
_x, train_y), (test_x, test_y) =\\\r\n      keras.datasets.cifar10.load_data()  \r\n\r\nvgg = vgg16.VGG16(include_top=False,\r\n                  weights=None,\r\n                  input_shape=(32, 32, 3),\r\n                  classes=10)\r\nvgg.summary()\r\n```\r\nI Expected (None, 1, 1, 10) as an output shape, but the model gives: (None, 1, 1, 512)\r\n```bash\r\n_________________________________________________________________\r\nLayer (type)                 Output Shape              Param #\r\n=================================================================\r\ninput_1 (InputLayer)         (None, 32, 32, 3)         0\r\n_________________________________________________________________\r\nblock1_conv1 (Conv2D)        (None, 32, 32, 64)        1792\r\n_________________________________________________________________\r\nblock1_conv2 (Conv2D)        (None, 32, 32, 64)        36928\r\n_________________________________________________________________\r\nblock1_pool (MaxPooling2D)   (None, 16, 16, 64)        0\r\n_________________________________________________________________\r\nblock2_conv1 (Conv2D)        (None, 16, 16, 128)       73856\r\n_________________________________________________________________\r\nblock2_conv2 (Conv2D)        (None, 16, 16, 128)       147584\r\n_________________________________________________________________\r\nblock2_pool (MaxPooling2D)   (None, 8, 8, 128)         0\r\n_________________________________________________________________\r\nblock3_conv1 (Conv2D)        (None, 8, 8, 256)         295168\r\n_________________________________________________________________\r\nblock3_conv2 (Conv2D)        (None, 8, 8, 256)         590080\r\n_________________________________________________________________\r\nblock3_conv3 (Conv2D)        (None, 8, 8, 256)         590080\r\n_________________________________________________________________\r\nblock3_pool (MaxPooling2D)   (None, 4, 4, 256)         0\r\n_________________________________________________________________\r\nblock4_conv1 (Conv2D)        (None, 4, 4, 512)         1180160\r\n_________________________________________________________________\r\nblock4_conv2 (Conv2D)        (None, 4, 4, 512)         2359808\r\n_________________________________________________________________\r\nblock4_conv3 (Conv2D)        (None, 4, 4, 512)         2359808\r\n_________________________________________________________________\r\nblock4_pool (MaxPooling2D)   (None, 2, 2, 512)         0\r\n_________________________________________________________________\r\nblock5_conv1 (Conv2D)        (None, 2, 2, 512)         2359808\r\n_________________________________________________________________\r\nblock5_conv2 (Conv2D)        (None, 2, 2, 512)         2359808\r\n_________________________________________________________________\r\nblock5_conv3 (Conv2D)        (None, 2, 2, 512)         2359808\r\n_________________________________________________________________\r\nblock5_pool (MaxPooling2D)   (None, 1, 1, 512)         0\r\n=================================================================\r\nTotal params: 14,714,688\r\nTrainable params: 14,714,688\r\nNon-trainable params: 0\r\n_________________________________________________________________\r\n```\r\nI'm not sure if this is an expected behaviour, but seems like the argument `classes` cannot affects the model when the `include_top`flag is off. \r\nhttps://github.
…
