…
tion, padding='same', \r\n               name='extractor'))\r\n    model.add(Flatten())\r\n    model.add(Dense(layer3,activation=activation))\r\n    model.add(Dropout(dropout_rate))\r\n    model.add(Dense(1))\r\n    model.compile(optimizer=optimizer,loss=loss)\r\n    return model\r\n\r\ntwds_model=twds_model()\r\nprint(twds_model.summary())\r\n```\r\n\r\n```\r\n_________________________________________________________________\r\nLayer (type)                 Output Shape              Param #   \r\n=================================================================\r\nbidirectional_4 (Bidirection (None, 18, 64)            9216      \r\n_________________________________________________________________\r\naverage_pooling1d_1 (Average (None, 9, 64)             0         \r\n_________________________________________________________________\r\nextractor (Conv1D)           (None, 9, 32)             6176      \r\n_________________________________________________________________\r\nflatten_1 (Flatten)          (None, 288)               0         \r\n_________________________________________________________________\r\ndense_3 (Dense)              (None, 16)                4624      \r\n_________________________________________________________________\r\ndropout_4 (Dropout)          (None, 16)                0         \r\n_________________________________________________________________\r\ndense_4 (Dense)              (None, 1)                 17        \r\n=================================================================\r\nTotal params: 20,033\r\nTrainable params: 20,033\r\nNon-trainable params: 0\r\n_________________________________________________________________\r\nNone\r\n```\r\n\r\nand \r\n\r\n```\r\nmodel_twds=KerasRegressor(build_fn=twds_model, batch_size=144,epochs=6)#12\r\n```\r\n\r\nThe complete error: \r\n```\r\n[Parallel(n_j
…
