…
ameters.\r\n\r\n```\r\ndef count_parameters(model):\r\n    print(f'Number of trainable parameters: {sum(p.numel() for p in model.parameters() if p.requires_grad)}')\r\n```\r\nBut I found that there is no difference between the two models.\r\nThe output of the model architecture is also the same:\r\n\r\n```\r\n2020-07-08 00:55:04,134 Model: \"SequenceTagger(\r\n  (embeddings): StackedEmbeddings(\r\n    (list_embedding_0): WordEmbeddings('glove')\r\n    (list_embedding_1): RoBERTaEmbeddings(\r\n      (model): RobertaModel(\r\n        (embeddings): RobertaEmbeddings(\r\n          (word_embeddings): Embedding(50265, 768, padding_idx=1)\r\n          (position_embeddings): Embedding(514, 768, padding_idx=1)\r\n          (token_type_embeddings): Embedding(1, 768)\r\n          (LayerNorm): LayerNorm((768,), eps=1e-05, elementwise_affine=True)\r\n          (dropout): Dropout(p=0.1, inplace=False)\r\n        )\r\n        (encoder): BertEncoder(\r\n          (layer): ModuleList(\r\n            (0): BertLayer(\r\n              (attention): BertAttention(\r\n                (self): BertSelfAttention(\r\n                  (query): Linear(in_features=768, out_features=768, bias=True)\r\n                  (key): Linear(in_features=768, out_features=768, bias=True)\r\n                  (value): Linear(in_features=768, out_features=768, bias=True)\r\n                  (dropout): Dropout(p=0.1, inplace=False)\r\n                )\r\n                (output): BertSelfOutput(\r\n                  (dense): Linear(in_features=768, out_features=768, bias=True)\r\n                  (LayerNorm): LayerNorm((768,), eps=1e-05, elementwise_affine=True)\r\n                  (dropout): Dropout(p=0.1, inplace=False)\r\n                )\r\n              )\r\n              (intermediate): BertIntermediate(\r\n                (dense): Linear(in_features=768, out_features=3072, bias=True)\r\n              )\r\n              (output): BertOutput(\r\n                (dense): Linear(in_features=3072, out_features=768, bias=True)\r\n                (LayerNorm): LayerNorm((768,), eps=1e-05, elementwise_affine=True)\r\n                (dropout): Dropout(p=0.1, inplace=False)\r\n              )\r\n            )\r\n            (1): BertLayer(\r\n              (attention): BertAttention(\r\n                (self): BertSelfAttention(\r\n                  (query): Linear(in_features=768, out_features=768, bias=True)\r\n                  (key): Linear(in_features=768, out_features=768, bias=True)\r\n                  (value): Linear(in_features=768, out_features=768, bias=True)\r\n                  (dropout): Dropout(p=0.1, inplace=False)\r\n                )\r\n                (output): BertSelfOutput(\r\n                  (dense): Linear(in_features=768, out_features=768, bias=True)\r\n                  (LayerNorm): LayerNorm((768,), eps=1e-05, elementwise_affine=True)\r\n                  (dropout): Dropout(p=0.1, inplace=False)\r\n                )\r\n              )\r\n              (intermediate): BertIntermediate(\r\n                (dense): Linear(in_features=768, out_features=3072, bias=True)\r\n              )\r\n              (output): BertOutput(\r\n                (dense): Linear(in_features=3072, out_features=768, bias=True)\r\n                (LayerNorm): LayerNorm((768,), eps=1e-05, elementwise_affine=True)\r\n                (dropout): Dropout(p=0.1, inplace=False)\r\n              )\r\n            )\r\n            (2): BertLayer(\r\n              (attention): BertAttention(\r\n                (self): BertSelfAttention(\r\n                  (query): Linear(in_features=768, out_features=768, bias=True)\r\n                  (key): Linear(in_features=768, out_features=768, bias=True)\r\n                  (value): Linear(in_features=768, out_features=768, bias=True)\r\n                  (dropout): Dropout(p=0.1, inplace=False)\r\n                )\r\n                (output): BertSelfOutput(\r\n                  (dense): Linear(in_features=768, out_features=768, bias=True)\r\n                  (LayerNorm): LayerNorm((768,), eps=1e-05, elementwise_affine=True)\r\n                  (dropout): Dropout(p=0.1, inplace=False)\r\n                )\r\n              )\r\n              (intermediate): BertIntermediate(\r\n                (dense): Linear(in_features=768, out_features=3072, bias=True)\r\n              )\r\n              (output): BertOutput(\r\n                (dense): Linear(in_features=3072, out_features=768, bias=True)\r\n                (LayerNorm): LayerNorm((768,), eps=1e-05, elementwise_affine=True)\r\n                (dropout): Dropout(p=0.1, inplace=False)\r\n              )\r\n            )\r\n            (3): BertLayer(\r\n              (attention): BertAttention(\r\n                (self): BertSelfAttention(\r\n                  (query): Linear(in_features=768, out_features=768, bias=True)\r\n                  (key): Linear(in_features=768, out_features=768, bias=True)\r\n                  (value): Linear(in_features=768, out_features=768, bias=True)\r\n                  (dropout): Dropout(p=0.1, inplace=False)\r\n                )\r\n                (output): BertSelfOutput(\r\n                  (dense): Linear(in_features=768, out_features=768, bias=True)\r\n                  (LayerNorm): LayerNorm((768,), eps=1e-05, elementwise_affine=True)\r\n                  (dropout): Dropout(p=0.1, inplace=False)\r\n                )\r\n              )\r\n              (intermediate): BertIntermediate(\r\n                (dense): Linear(in_features=768, out_features=3072, bias=True)\r\n              )\r\n              (output): BertOutput(\r\n                (dense): Linear(in_features=3072, out_features=768, bias=True)\r\n                (LayerNorm): LayerNorm((768,), eps=1e-05, elementwise_affine=True)\r\n                (dropout): Dropout(p=0.1, inplace=False)\r\n              )\r\n            )\r\n            (4): BertLayer(\r\n              (attention): BertAttention(\r\n                (self): BertSelfAttention(\r\n                  (query): Linear(in_features=768, out_features=768, bias=True)\r\n                  (key): Linear(in_features=768, out_features=768, bias=True)\r\n                  (value): Linear(in_features=768, out_features=768, bias=True)\r\n                  (dropout): Dropout(p=0.1, inplace=False)\r\n                )\r\n                (output): BertSelfOutput(\r\n                  (dense): Linear(in_features=768, out_features=768, bias=True)\r\n                  (LayerNorm): LayerNorm((768,), eps=1e-05, elementwise_affine=True)\r\n                  (dropout): Dropout(p=0.1, inplace=False)\r\n                )\r\n              )\r\n              (intermediate): BertIntermediate(\r\n                (dense): Linear(in_features=768, out_features=3072, bias=True)\r\n              )\r\n              (output): BertOutput(\r\n                (dense): Linear(in_features=3072, out_features=768, bias=True)\r\n                (LayerNorm): LayerNorm((768,), eps=1e-05, elementwise_affine=True)\r\n                (dropout): Dropout(p=0.1, inplace=False)\r\n              )\r\n            )\r\n            (5): BertLayer(\r\n              (attention): BertAttention(\r\n                (self): BertSelfAttention(\r\n                  (query): Linear(in_features=768, out_features=768, bias=True)\r\n                  (key): Linear(in_features=768, out_features=768, bias=True)\r\n                  (value): Linear(in_features=768, out_features=768, bias=True)\r\n                  (dropout): Dropout(p=0.1, inplace=False)\r\n                )\r\n                (output): BertSelfOutput(\r\n                  (dense): Linear(in_features=768, out_features=768, bias=True)\r\n                  (LayerNorm): LayerNorm((768,), eps=1e-05, elementwise_affine=True)\r\n                  (dropout): Dropout(p=0.1, inplace=False)\r\n                )\r\n              )\r\n              (intermediate): BertIntermediate(\r\n                (dense): Linear(in_features=768, out_features=3072, bias=True)\r\n              )\r\n              (output): BertOutput(\r\n                (dense): Linear(in_features=3072, out_features=768, bias=True)\r\n                (LayerNorm): LayerNorm((768,), eps=1e-05, elementwise_affine=True)\r\n                (dropout): Dropout(p=0.1, inplace=False)\r\n              )\r\n            )\r\n            (6): BertLayer(\r\n              (attention): BertAttention(\r\n                (self): BertSelfAttention(\r\n                  (query): Linear(in_features=768, out_features=768, bias=True)\r\n                  (key): Linear(in_features=768, out_features=768, bias=True)\r\n                  (value): Linear(in_features=768, out_features=768, bias=True)\r\n                  (dropout): Dropout(p=0.1, inplace=False)\r\n                )\r\n                (output): BertSelfOutput(\r\n                  (dense): Linear(in_features=768, out_features=768, bias=True)\r\n                  (LayerNorm): LayerNorm((768,), eps=1e-05, elementwise_affine=True)\r\n                  (dropout): Dropout(p=0.1, inplace=False)\r\n                )\r\n              )\r\n              (intermediate): BertIntermediate(\r\n                (dense): Linear(in_features=768, out_features=3072, bias=True)\r\n              )\r\n              (output): BertOutput(\r\n                (dense): Linear(in_features=3072, out_features=768, bias=True)\r\n                (LayerNorm): LayerNorm((768,), eps=1e-05, elementwise_affine=True)\r\n                (dropout): Dropout(p=0.1, inplace=False)\r\n              )\r\n            )\r\n            (7): BertLayer(\r\n              (attention): BertAttention(\r\n                (self): BertSelfAttention(\r\n                  (query): Linear(in_features=768, out_features=768, bias=True)\r\n                  (key): Linear(in_features=768, out_features=768, bias=True)\r\n                  (value): Linear(in_features=768, out_features=768, bias=True)\r\n                  (dropout): Dropout(p=0.1, inplace=False)\r\n                )\r\n                (output): BertSelfOutput(\r\n                  (dense): Linear(in_features=768, out_features=768, bias=True)\r\n                  (LayerNorm): LayerNorm((768,), eps=1e-05, elementwise_affine=True)\r\n                  (dropout): Dropout(p=0.1, inplace=False)\r\n                )\r\n              )\r\n              (intermediate): BertIntermediate(\r\n                (dense): Linear(in_features=768, out_features=3072, bias=True)\r\n              )\r\n              (output): BertOutput(\r\n                (dense): Linear(in_features=3072, out_features=768, bias=True)\r\n                (LayerNorm): LayerNorm((768,), eps=1e-05, elementwise_affine=True)\r\n                (dropout): Dropout(p=0.1, inplace=False)\r\n              )\r\n            )\r\n            (8): BertLayer(\r\n              (attention): BertAttention(\r\n                (self): BertSelfAttention(\r\n                  (query): Linear(in_features=768, out_features=768, bias=True)\r\n                  (key): Linear(in_features=768, out_features=768, bias=True)\r\n                  (value): Linear(in_features=768, out_features=768, bias=True)\r\n                  (dropout): Dropout(p=0.1, inplace=False)\r\n                )\r\n                (output): BertSelfOutput(\r\n                  (dense): Linear(in_features=768, out_features=768, bias=True)\r\n                  (LayerNorm): LayerNorm((768,), eps=1e-05, elementwise_affine=True)\r\n                  (dropout): Dropout(p=0.1, inplace=False)\r\n                )\r\n              )\r\n              (intermediate): BertIntermediate(\r\n                (dense): Linear(in_features=768, out_features=3072, bias=True)\r\n              )\r\n              (output): BertOutput(\r\n                (dense): Linear(in_features=3072, out_features=768, bias=True)\r\n                (LayerNorm): LayerNorm((768,), eps=1e-05, elementwise_affine=True)\r\n                (dropout): Dropout(p=0.1, inplace=False)\r\n              )\r\n            )\r\n            (9): BertLayer(\r\n              (attention): BertAttention(\r\n                (self): BertSelfAttention(\r\n                  (query): Linear(in_features=768, out_features=768, bias=True)\r\n                  (key): Linear(in_features=768, out_features=768, bias=True)\r\n                  (value): Linear(in_features=768, out_features=768, bias=True)\r\n                  (dropout): Dropout(p=0.1, inplace=False)\r\n                )\r\n                (output): BertSelfOutput(\r\n                  (dense): Linear(in_features=768, out_features=768, bias=True)\r\n                  (LayerNorm): LayerNorm((768,), eps=1e-05, elementwise_affine=True)\r\n                  (dropout): Dropout(p=0.1, inplace=False)\r\n                )\r\n              )\r\n              (intermediate): BertIntermediate(\r\n                (dense): Linear(in_features=768, out_features=3072, bias=True)\r\n              )\r\n              (output): BertOutput(\r\n                (dense): Linear(in_features=3072, out_features=768, bias=True)\r\n                (LayerNorm): LayerNorm((768,), eps=1e-05, elementwise_affine=True)\r\n                (dropout): Dropout(p=0.1, inplace=False)\r\n              )\r\n            )\r\n            (10): BertLayer(\r\n              (attention): BertAttention(\r\n                (self): BertSelfAttention(\r\n                  (query): Linear(in_features=768, out_features=768, bias=True)\r\n                  (key): Linear(in_features=768, out_features=768, bias=True)\r\n                  (value): Linear(in_features=768, out_features=768, bias=True)\r\n                  (dropout): Dropout(p=0.1, inplace=False)\r\n                )\r\n                (output): BertSelfOutput(\r\n                  (dense): Linear(in_features=768, out_features=768, bias=True)\r\n                  (LayerNorm): LayerNorm((768,), eps=1e-05, elementwise_affine=True)\r\n                  (dropout): Dropout(p=0.1, inplace=False)\r\n                )\r\n              )\r\n              (intermediate): BertIntermediate(\r\n                (dense): Linear(in_features=768, out_features=3072, bias=True)\r\n              )\r\n              (output): BertOutput(\r\n                (dense): Linear(in_features=3072, out_features=768, bias=True)\r\n                (LayerNorm): LayerNorm((768,), eps=1e-05, elementwise_affine=True)\r\n                (dropout): Dropout(p=0.1, inplace=False)\r\n              )\r\n            )\r\n            (11): BertLayer(\r\n              (attention): BertAttention(\r\n                (self): BertSelfAttention(\r\n                  (query): Linear(in_features=768, out_features=768, bias=True)\r\n                  (key): Linear(in_features=768, out_features=768, bias=True)\r\n                  (value): Linear(in_features=768, out_features=768, bias=True)\r\n                  (dropout): Dropout(p=0.1, inplace=False)\r\n                )\r\n                (output): BertSelfOutput(\r\n                  (dense): Linear(in_features=768, out_features=768, bias=True)\r\n                  (LayerNorm): LayerNorm((768,), eps=1e-05, elementwise_affine=True)\r\n                  (dropout): Dropout(p=0.1, inplace=False)\r\n                )\r\n              )\r\n              (intermediate): BertIntermediate(\r\n                (dense): Linear(in_features=768, out_features=3072, bias=True)\r\n              )\r\n              (output): BertOutput(\r\n                (dense): Linear(in_features=3072, out_features=768, bias=True)\r\n                (LayerNorm): LayerNorm((768,), eps=1e-05, elementwise_affine=True)\r\n                (dropout): Dropout(p=0.1, inplace=False)\r\n              )\r\n            )\r\n          )\r\n        )\r\n        (pooler): BertPooler(\r\n          (dense): Linear(in_features=768, out_features=768, bias=True)\r\n          (activation): Tanh()\r\n        )\r\n      )\r\n    )\r\n  )\r\n  (word_dropout): WordDropout(p=0.05)\r\n  (locked_dropout): LockedDropout(p=0.5)\r\n  (embedding2nn): Linear(in_features=868, out_features=868, bias=True)\r\n  (rnn): LSTM(868, 256, batch_first=True, bidirectional=True)\r\n  (linear): Linear(in_features=512, out_features=19, bias=True)\r\n  (beta): 1.0\r\n  (weights): None\r\n  (weight_tensor) None\r\n)\"\r\n```\r\n\r\nIs any thing wrong here?", "performed_via_github_app": null, "score": 1.0}, {"url": "https://api.github.com/repos/flairNLP/flair/issues/1744", "repository_url": "https://api.github.com/repos/flairNLP/flair", "labels_url": "https://api.github.com/repos/flairNLP/flair/iss
…
