…
.local/lib/python3.6/site-packages/tensorflow/python/ops/init_ops.py:1251: calling VarianceScaling.__init__ (from tensorflow.python.ops.init_ops) with dtype is deprecated and will be removed in a future version.\r\nInstructions for updating:\r\nCall initializer instance with the dtype argument instead of passing it to the constructor\r\nModel: \"sequential\"\r\n_________________________________________________________________\r\nLayer (type)                 Output Shape              Param #   \r\n=================================================================\r\nzero_padding2d (ZeroPadding2 (None, 226, 226, 20)      0         \r\n_________________________________________________________________\r\nconv1_1 (Conv2D)             (None, 224, 224, 64)      11584     \r\n_________________________________________________________________\r\nzero_padding2d_1 (ZeroPaddin (None, 226, 226, 64)      0         \r\n_________________________________________________________________\r\nconv1_2 (Conv2D)             (None, 224, 224, 64)      36928     \r\n_________________________________________________________________\r\nmax_pooling2d (MaxPooling2D) (None, 112, 112, 64)      0         \r\n_________________________________________________________________\r\nzero_padding2d_2 (ZeroPaddin (None, 114, 114, 64)      0         \r\n_________________________________________________________________\r\nconv2_1 (Conv2D)             (None, 112, 112, 128)     73856     \r\n_________________________________________________________________\r\nzero_padding2d_3 (ZeroPaddin (None, 114, 114, 128)     0         \r\n_________________________________________________________________\r\nconv2_2 (Conv2D)             (None, 112, 112, 128)     147584    \r\n_________________________________________________________________\r\nmax_pooling2d_1 (MaxPooling2 (None, 56, 56, 128)       0         \r\n_________________________________________________________________\r\nzero_padding2d_4 (ZeroPaddin (None, 58, 58, 128)       0         \r\n_________________________________________________________________\r\nconv3_1 (Conv2D)             (None, 56, 56, 256)       295168    \r\n_________________________________________________________________\r\nzero_padding2d_5 (ZeroPaddin (None, 58, 58, 256)       0         \r\n_________________________________________________________________\r\nconv3_2 (Conv2D)             (None, 56, 56, 256)       590080    \r\n_________________________________________________________________\r\nzero_padding2d_6 (ZeroPaddin (None, 58, 58, 256)       0         \r\n_________________________________________________________________\r\nconv3_3 (Conv2D)             (None, 56, 56, 256)       590080    \r\n_________________________________________________________________\r\nmax_pooling2d_2 (MaxPooling2 (None, 28, 28, 256)       0         \r\n_________________________________________________________________\r\nzero_padding2d_7 (ZeroPaddin (None, 30, 30, 256)       0         \r\n_________________________________________________________________\r\nconv4_1 (Conv2D)             (None, 28, 28, 512)       1180160   \r\n_________________________________________________________________\r\nzero_padding2d_8 (ZeroPaddin (None, 30, 30, 512)       0         \r\n_________________________________________________________________\r\nconv4_2 (Conv2D)             (None, 28, 28, 512)       2359808   \r\n_________________________________________________________________\r\nzero_padding2d_9 (ZeroPaddin (None, 30, 30, 512)       0         \r\n_________________________________________________________________\r\nconv4_3 (Conv2D)             (None, 28, 28, 512)       2359808   \r\n_________________________________________________________________\r\nmax_pooling2d_3 (MaxPooling2 (None, 14, 14, 512)       0         \r\n_________________________________________________________________\r\nzero_padding2d_10 (ZeroPaddi (None, 16, 16, 512)       0         \r\n_________________________________________________________________\r\nconv5_1 (Conv2D)             (None, 14, 14, 512)       2359808   \r\n_________________________________________________________________\r\nzero_padding2d_11 (ZeroPaddi (None, 16, 16, 512)       0         \r\n_________________________________________________________________\r\nconv5_2 (Conv2D)             (None, 14, 14, 512)       2359808   \r\n_________________________________________________________________\r\nzero_padding2d_12 (ZeroPaddi (None, 16, 16, 512)       0         \r\n_________________________________________________________________\r\nconv5_3 (Conv2D)             (None, 14, 14, 512)       2359808   \r\n_________________________________________________________________\r\nmax_pooling2d_4 (MaxPooling2 (None, 7, 7, 512)         0         \r\n_________________________________________________________________\r\nflatten (Flatten)            (None, 25088)             0         \r\n_________________________________________________________________\r\nfc6 (Dense)                  (None, 4096)              102764544 \r\n=================================================================\r\nTotal params: 117,489,024\r\nTrainable params: 117,489,024\r\nNon-trainable params: 0\r\n_________________________________________________________________\r\nTraceback (most recent call last):\r\n  File \"archtojson.py\", line 54, in <module>\r\n    model.load_weights('/home/ubuntu/Desktop/onnxkeras/weights.h5')\r\n  File \"
…
1)]      0                                            \r\n__________________________________________________________________________________________________\r\ntile_barrel_Lr2 (InputLayer)    [(None, 7, 11)]      0                                            \r\n__________________________________________________________________________________________________\r\ntile_barrel_Lr3 (InputLayer)    [(None, 7, 11)]      0                                            \r\n__________________________________________________________________________________________________\r\nreshape_7 (Reshape)             (None, 56, 11, 1)    0           em_barrel_Lr1[0][0]              \r\n__________________________________________________________________________________________________\r\ntracks_image (InputLayer)       [(None, 4, 13)]      0                                            \r\n__________________________________________________________________________________________________\r\nreshape_1 (Reshape)             (None, 7, 11, 1)     0           em_barrel_Lr0[0][0]              \r\n__________________________________________________________________________________________________\r\nreshape_2 (Reshape)             (None, 7, 11, 1)     0           em_barrel_Lr2[0][0]              \r\n__________________________________________________________________________________________________\r\nreshape_3 (Reshape)             (None, 7, 11, 1)     0           em_barrel_Lr3[0][0]              \r\n__________________________________________________________________________________________________\r\nreshape_4 (Reshape)             (None, 7, 11, 1)     0           tile_barrel_Lr1[0][0]            \r\n__________________________________________________________________________________________________\r\nreshape_5 (Reshape)             (None, 7, 11, 1)     0           tile_barrel_Lr2[0][0]            \r\n__________________________________________________________________________________________________\r\nreshape_6 (Reshape)             (None, 7, 11, 1)     0           tile_barrel_Lr3[0][0]            \r\n__________________________________________________________________________________________________\r\nconv2d_4 (Conv2D)               (None, 54, 9, 200)   2000        reshape_7[0][0]                  \r\n__________________________________________________________________________________________________\r\nreshape (Reshape)               (None, 4, 13, 1)     0           tracks_image[0][0]               \r\n__________________________________________________________________________________________________\r\nconcatenate (Concatenate)       (None, 7, 11, 6)     0           reshape_1[0][0]                  \r\n                                                                 reshape_2[0][0]                  \r\n                                                                 reshape_3[0][0]                  \r\n                                                                 reshape_4[0][0]                  \r\n                                                                 reshape_5[0][0]                  \r\n                                                                 reshape_6[0][0]                  \r\n__________________________________________________________________________________________________\r\nleaky_re_lu_4 (LeakyReLU)       (None, 54, 9, 200)   0           conv2d_4[0][0]                   \r\n__________________________________________________________________________________________________\r\nconv2d (Conv2D)                 (None, 4, 13, 200)   400         reshape[0][0]                    \r\n__________________________________________________________________________________________________\r\nconv2d_2 (Conv2D)               (None, 6, 9, 200)    7400        concatenate[0][0]                \r\n__________________________________________________________________________________________________\r\nmax_pooling2d (MaxPooling2D)    (None, 27, 4, 200)   0           leaky_re_lu_4[0][0]              \r\n__________________________________________________________________________________________________\r\nleaky_re_lu (LeakyReLU)         (None, 4, 13, 200)   0           conv2d[0][0]                     \r\n__________________________________________________________________________________________________\r\nleaky_re_lu_2 (LeakyReLU)       (None, 6, 9, 200)    0           conv2d_2[0][0]                   \r\n__________________________________________________________________________________________________\r\ndropout_4 (Dropout)             (None, 27, 4, 200)   0           max_pooling2d[0][0]              \r\n__________________________________________________________________________________________________\r\ndropout (Dropout)               (None, 4, 13, 200)   0           leaky_re_lu[0][0]                \r\n__________________________________________________________________________________________________\r\ndropout_2 (Dropout)             (None, 6, 9, 200)    0           leaky_re_lu_2[0][0]              \r\n__________________________________________________________________________________________________\r\nconv2d_5 (Conv2D)               (None, 25, 2, 200)   360200      dropout_4[0][0]                  \r\n__________________________________________________________________________________________________\r\nconv2d_1 (Conv2D)               (None, 4, 13, 200)   40200       dropout[0][0]                    \r\n__________________________________________________________________________________________________\r\nconv2d_3 (Conv2D)               (None, 5, 7, 200)    240200      dropout_2[0][0]                  \r\n__________________________________________________________________________________________________\r\nleaky_re_lu_5 (LeakyReLU)       (None, 25, 2, 200)   0           conv2d_5[0][0]                   \r\n__________________________________________________________________________________________________\r\nleaky_re_lu_1 (LeakyReLU)       (None, 4, 13, 200)   0           conv2d_1[0][0]                   \r\n__________________________________________________________________________________________________\r\nleaky_re_lu_3 (LeakyReLU)       (None, 5, 7, 200)    0           conv2d_3[0][0]                   \r\n__________________________________________________________________________________________________\r\nmax_pooling2d_1 (MaxPooling2D)  (None, 12, 1, 200)   0           leaky_re_lu_5[0][0]              \r\n__________________________________________________________________________________________________\r\ndropout_1 (Dropout)             (None, 4, 13, 200)   0           leaky_re_lu_1[0][0]              \r\n__________________________________________________________________________________________________\r\ndropout_3 (Dropout)             (None, 5, 7, 200)    0           leaky_re_lu_3[0][0]              \r\n__________________________________________________________________________________________________\r\ndropout_5 (Dropout)             (None, 12, 1, 200)   0           max_pooling2d_1[0][0]            \r\n__________________________________________________________________________________________________\r\np_Eratio (InputLayer)           [(None,)]            0                                            \r\n__________________________________________________________________________________________________\r\np_Reta (InputLayer)             [(None,)]     
…
         0                                            \r\n__________________________________________________________________________________________________\r\np_nTracks (InputLayer)          [(None,)]            0                                            \r\n__________________________________________________________________________________________________\r\np_sct_weight_charge (InputLayer [(None,)]            0                                            \r\n__________________________________________________________________________________________________\r\nflatten (Flatten)               (None, 10400)        0           dropout_1[0][0]                  \r\n__________________________________________________________________________________________________\r\nflatten_1 (Flatten)             (None, 7000)         0           dropout_3[0][0]                  \r\n__________________________________________________________________________________________________\r\nflatten_2 (Flatten)             (None, 2400)         0           dropout_5[0][0]                  \r\n__________________________________________________________________________________________________\r\nflatten_3 (Flatten)             (None, 1)            0           p_Eratio[0][0]                   \r\n__________________________________________________________________________________________________\r\nflatten_4 (Flatten)             (None, 1)            0           p_Reta[0][0]                     \r\n__________________________________________________________________________________________________\r\nflatten_5 (Flatten)             (None, 1)            0           p_Rhad[0][0]                     \r\n__________________________________________________________________________________________________\r\nflatten_6 (Flatten)             (None, 1)            0           p_Rphi[0][0]                     \r\n__________________________________________________________________________________________________\r\nflatten_7 (Flatten)             (None, 1)            0           p_TRTPID[0][0]                   \r\n__________________________________________________________________________________________________\r\nflatten_8 (Flatten)             (None, 1)            0           p_numberOfSCTHits[0][0]          \r\n__________________________________________________________________________________________________\r\nflatten_9 (Flatten)             (None, 1)            0           p_ndof[0][0]                     \r\n__________________________________________________________________________________________________\r\nflatten_10 (Flatten)            (None, 1)            0           p_dPOverP[0][0]                  \r\n__________________________________________________________________________________________________\r\nflatten_11 (Flatten)            (None, 1)            0           p_deltaEta1[0][0]                \r\n__________________________________________________________________________________________________\r\nflatten_12 (Flatten)            (None, 1)            0           p_f1[0][0]                       \r\n__________________________________________________________________________________________________\r\nflatten_13 (Flatten)            (None, 1)            0           p_f3[0][0]                       \r\n__________________________________________________________________________________________________\r\nflatten_14 (Flatten)            (None, 1)            0           p_deltaPhiRescaled2[0][0]        \r\n__________________________________________________________________________________________________\r\nflatten_15 (Flatten)            (None, 1)            0           p_weta2[0][0]                    \r\n__________________________________________________________________________________________________\r\nflatten_16 (Flatten)            (None, 1)            0           p_d0[0][0]                       \r\n__________________________________________________________________________________________________\r\nflatten_17 (Flatten)            (None, 1)            0           p_d0Sig[0][0]                    \r\n__________________________________________________________________________________________________\r\nflatten_18 (Flatten)            (None, 1)            0           p_qd0Sig[0][0]                   \r\n__________________________________________________________________________________________________\r\nflatten_19 (Flatten)            (None, 1)            0           p_nTracks[0][0]                  \r\n__________________________________________________________________________________________________\r\nflatten_20 (Flatten)            (None, 1)            0           p_sct_weight_charge[0][0]        \r\n__________________________________________________________________________________________________\r\nconcatenate_1 (Concatenate)     (None, 19818)        0           flatten[0][0]                    \r\n                                                                 flatten_1[0][0]                  \r\n                                                                 flatten_2[0][0]                  \r\n                                                                 flatten_3[0][0]                  \r\n                                              
…
                     flatten_16[0][0]                 \r\n                                                                 flatten_17[0][0]                 \r\n                                                                 flatten_18[0][0]                 \r\n                                                                 flatten_19[0][0]                 \r\n                                                                 flatten_20[0][0]                 \r\n__________________________________________________________________________________________________\r\ndense (Dense)                   (None, 200)          3963800     concatenate_1[0][0]              \r\n__________________________________________________________________________________________________\r\nleaky_re_lu_6 (LeakyReLU)       (None, 200)          0           dense[0][0]                      \r\n__________________________________________________________________________________________________\r\ndropout_6 (Dropout)             (None, 200)          0           leaky_re_lu_6[0][0]              \r\n__________________________________________________________________________________________________\r\ndense_1 (Dense)                 (None, 200)          40200       dropout_6[0][0]                  \r\n__________________________________________________________________________________________________\r\nleaky_re_lu_7 (LeakyReLU)       (None, 200)          0           dense_1[0][0]                    \r\n__________________________________________________________________________________________________\r\ndropout_7 (Dropout)             (None, 200)          0           leaky_re_lu_7[0][0]              \r\n__________________________________________________________________________________________________\r\ndense_2 (Dense)                 (None, 2)            402         dropout_7[0][0]                  \r\n==================================================================================================\r\nTotal params: 4,654,802\r\nTrainable params: 4,654,802\r\nNon-trainable params: 0\r\n__________________________________________________________________________________________________\r\n```\r\nwhich converts to .onnx model, and I have a sample to inpu
…
nx.summary()\r\n```\r\n\r\n\r\n```\r\nModel: \"model\"\r\n__________________________________________________________________________________________________\r\nLayer (type)                    Output Shape         Param #     Connected to                     \r\n==================================================================================================\r\ninput_1 (InputLayer)            [(None, 28, 28, 1)]  0                                            \r\n__________________________________________________________________________________________________\r\nadjusted (Permute)              (None, 1, 28, 28)    0           input_1[0][0]                    \r\n__________________________________________________________________________________________________\r\nconvolut (Conv2D)               (None, 32, 26, 26)   320         adjusted[0][0]                   \r\n__________________________________________________________________________________________________\r\nconv2d/I (Activation)           (None, 32, 26, 26)   0           convolut[0][0]                   \r\n__________________________________________________________________________________________________\r\nconvolut_1 (Conv2D)             (None, 64, 24, 24)   18496       conv2d/I[0][0]                   \r\n__________________________________________________________________________________________________\r\nconv2d_1 (Activation)           (None, 64, 24, 24)   0           convolut_1[0][0]                 \r\n__________________________________________________________________________________________________\r\nconv2d_1_1_pad (ZeroPadding2D)  (None, 64, 24, 24)   0           conv2d_1[0][0]                   \r\n__________________________________________________________________________________________________\r\nconv2d_1_1 (MaxPooling2D)       (None, 64, 12, 12)   0           conv2d_1_1_pad[0][0]             \r\n__________________________________________________________________________________________________\r\nconv2d_1_2 (Permute)            (None, 12, 12, 64)   0           conv2d_1_1[0][0]                 \r\n__________________________________________________________________________________________________\r\nflatten/ (Reshape)              (None, None)         0           conv2d_1_2[0][0]                 \r\n__________________________________________________________________________________________________\r\ntransfor_reshape (Reshape)      (None, 9216)         0           flatten/[0][0]                   \r\n__________________________________________________________________________________________________\r\ntransfor (Dense)                (None, 128)          1179648     transfor_reshape[0][0]           \r\n__________________________________________________________________________________________________\r\nbiased_t_const2 (Lambda)        (128,)               0           input_1[0][0]                    \r\n__________________________________________________________________________________________________\r\nbiased_t (Lambda)               (None, 128)          0           transfor[0][0]                   \r\n                                                                 biased_t_const2[0][0]            \r\n__________________________________________________________________________________________________\r\ndense/Id (Activation)           (None, 128)          0           biased_t[0][0]                   \r\n__________________________________________________________________________________________________\r\ntransfor_1 (Dense)              (None, 10)           1280        dense/Id[0][0]                   \r\n__________________________________________________________________________________________________\r\nbiased_t_1_const2 (Lambda)      (10,)                0           input_1[0][0]                    \r\n__________________________________________________________________________________________________\r\nbiased_t_1 (Lambda)             (None, 10)           0           transfor_1[0][0]                 \r\n                                                                 biased_t_1_const2[0][0]          \r\n__________________________________________________________________________________________________\r\ndense_1/ (Activation)           (None, 10)           0           biased_t_1[0][0]                 \r\n==================================================================================================\r\nTotal params: 1,199,744\r\nTrainable params: 1,199,744\r\nNon-trainable params: 0\r\n__________________________________________________________________________________________________\r\n\r\n```\r\n\r\n3. \r\n```python\r\ny_pred_onnx = k_model_onnx.p
…
\"Tensor is unhashable if Tensor equality is enabled. \"\r\nTypeError: Tensor is unhashable if Tensor equality is enabled. Instead, use tensor.experimental_ref() as the key.\r\n```\r\n\r\nhere's the model detail\r\n```\r\n\r\n_________________________________________________________________\r\nLayer (type)                 Output Shape              Param #   \r\n=================================================================\r\ninput_1 (InputLayer)         [(None, 224, 224, 3)]     0         \r\n_________________________________________________________________\r\nconv2d (Conv2D)              (None, 224, 224, 16)      448       \r\n_________________________________________________________________\r\nactivation (Activation)      (None, 224, 224, 16)      0         \r\n_________________________________________________________________\r\nbatch_normalization (BatchNo (None, 224, 224, 16)      64        \r\n_________________________________________________________________\r\nmax_pooling2d (MaxPooling2D) (None, 112, 112, 16)      0         \r\n_________________________________________________________________\r\nconv2d_1 (Conv2D)            (None, 112, 112, 32)      4640      \r\n_________________________________________________________________\r\nactivation_1 (Activation)    (None, 112, 112, 32)      0         \r\n_________________________________________________________________\r\nbatch_normalization_1 (Batch (None, 112, 112, 32)      128       \r\n_________________________________________________________________\r\nmax_pooling2d_1 (MaxPooling2 (None, 56, 56, 32)        0         \r\n_________________________________________________________________\r\nconv2d_2 (Conv2D)            (None, 56, 56, 64)        18496     \r\n_________________________________________________________________\r\nactivation_2 (Activation)    (None, 56, 56, 64)        0         \r\n_________________________________________________________________\r\nbatch_normalization_2 (Batch (None, 56, 56, 64)        256       \r\n_________________________________________________________________\r\nmax_pooling2d_2 (MaxPooling2 (None, 28, 28, 64)        0         \r\n_________________________________________________________________\r\nflatten (Flatten)            (None, 50176)             0         \r\n_________________________________________________________________\r\ndense (Dense)                (None, 16)                802832    \r\n_________________________________________________________________\r\nactivation_3 (Activation)    (None, 16)                0         \r\n_________________________________________________________________\r\nbatch_normalization_3 (Batch (None, 16)                64        \r\n_________________________________________________________________\r\ndropout (Dropout)            (None, 16)                0         \r\n_________________________________________________________________\r\ndense_1 (Dense)              (None, 3)                 51        \r\n=================================================================\r\n```\r\n or is this a tf2 bug that has nothing to do with keras2onnx?", "performed_via_github_app": null, "score": 1.0}, {"url": "https://api.github.com/repos/onnx/keras-onnx/issues/248", "repository_url": "https://api.github.com/repos/onnx/keras-onnx", "labels_url": "https://api.github.com/repos/onnx/keras-onnx/issues
…
