…
1-28T13:50:41Z", "author_association": "NONE", "active_lock_reason": null, "body": "Hi people. I have some problems with transfer learning. I use the facenet model and load the model and weights from * .h5 files.\r\nI want to transfer learning of this model for my classifier. Then I change the weight value of some layers to True. I change it, but after compiling a new model with my classifier, the number of trained parameters does not change, all loaded models weights in an untrained state.\r\n`Layer (type)                 Output Shape              Param #   `\r\n`inception_resnet_v1 (Model)  (None, 128)               22808144  `\r\n`dense_1 (Dense)                     (None, 256)               33024     `\r\n`activation_50 (Activation)   (None, 256)               0         `\r\n`dropout_1 (Dropout)          (None, 256)               0         `\r\n`dense_2 (Dense)              (None, 3)                 771       `\r\n`activation_51 (Activation)   (None, 3)                 0         `\r\n\r\n`Total params: 22,841,939`\r\n`Trainable params: 33,795`\r\n`Non-trainable params: 22,808,144`\r\n\r\nThank you!\r\n", "performed_via_github_app": null, "score": 1.0}, {"url": "https://api.github.com/repos/keras-team/keras/issues/13581", "repository_url": "https://api.github.com/repos/keras-team/keras", "labels_url": "https://api.github.com/repos/keras-team/keras/issues/13581/lab
…
