…
created because there are no variables in the graph to restore\r\nINFO:tensorflow:Saver not created because there are no variables in the graph to restore\r\nINFO:tensorflow:Saver not created because there are no variables in the graph to restore\r\nINFO:tensorflow:Saver not created because there are no variables in the graph to restore\r\n38\r\n7\r\n(2742, 38, 1024)\r\n(392, 38, 1024)\r\n(2742, 38, 2)\r\n(392, 38, 2)\r\n\r\n\r\nLayer (type)                 Output Shape              Param #   \r\n=================================================================\r\ninput_1 (InputLayer)         (None, 38, 1024)          0         \r\n_________________________________________________________________\r\nbatch_normalization_1 (Batch (None, 38, 1024)          4096      \r\n_________________________________________________________________\r\nmasking_1 (Masking)          (None, 38, 1024)          0         \r\n_________________________________________________________________\r\nbidirectional_1 (Bidirection (None, 38, 256)           1180672   \r\n_________________________________________________________________\r\nbidirectional_2 (Bidirection (None, 38, 256)           394240    \r\n_________________________________________________________________\r\ndropout_1 (Dropout)          (None, 38, 256)           0         \r\n_________________________________________________________________\r\ndense_1 (Dense)              (None, 38, 2)             514       \r\n=================================================================\r\nTotal params: 1,579,522\r\nTrainable params: 1,577,474\r\nNon-trainable params: 2,048\r\n_________________________________________________________________\r\nTrain on 2742 samples, validate on 392 samples\r\nEpoch 1/30\r\n2020-02-28 19:42:36.337714: I tensorflow/core/platform/cpu_feature_guard.cc:141] Your CPU supports
…
